…
│    │    └─Up: 3-5                                                         54,196
│    │    └─SingleConv: 3-6                                                 196
====================================================================================================
Total params: 1,752,934
Trainable params: 1,752,934
Non-trainable params: 0
====================================================================================================

AutoEncoder(
  (convnet): ConvNet(
    (encoder): Sequential(
      (0): SingleConv(
        (conv): ConvBlock(
          (conv_block): Sequential(
            (0): BaseConv2d(
              (conv): Conv2d(4, 48, kernel_size=(3, 3), stride=(1, 1), padding=(1, 1), padding_mode=circular)
            )
            (1): Identity()
            (2): Identity()
          )
        )
        (projection): Identity()
      )
      (1): Down(
        (down): PolyphaseInvariantDown2D(
          (component_selection): LPS(
            (get_logits): LPSLogitLayersV2(
              (conv): DoubleConv(
                (block): Sequential(
                  (0): ConvBlock(
                    (conv_block): Sequential(
                      (0): BaseConv2d(
                        (conv): Conv2d(96, 96, kernel_size=(3, 3), stride=(1, 1), padding=(1, 1), padding_mode=circular)
                      )
                      (1): BatchNorm2d()
                      (2): modReLU()
                    )
                  )
                  (1): ConvBlock(
                    (conv_block): Sequential(
                      (0): BaseConv2d(
                        (conv): Conv2d(96, 96, kernel_size=(3, 3), stride=(1, 1), padding=(1, 1), padding_mode=circular)
                      )
                      (1): BatchNorm2d()
                      (2): modReLU()
                    )
                  )
                )
                (residual_connection): Identity()
              )
              (projection): MLPCtoR(
                (mlp): Sequential(
                  (0): Linear(in_features=2, out_features=8, bias=True)
                  (1): ReLU()
                  (2): Linear(in_features=8, out_features=16, bias=True)
                  (3): ReLU()
                  (4): Linear(in_features=16, out_features=8, bias=True)
                  (5): ReLU()
                  (6): Linear(in_features=8, out_features=1, bias=True)
                )
              )
            )
            (gumbel_softmax): GumbelSoftmax()
            (softmax): Softmax()
          )
        )
        (convs): Sequential(
          (0): DoubleConv(
            (block): Sequential(
              (0): ConvBlock(
                (conv_block): Sequential(
                  (0): BaseConv2d(
                    (conv): Conv2d(48, 96, kernel_size=(3, 3), stride=(1, 1), padding=(1, 1), padding_mode=circular)
                  )
                  (1): BatchNorm2d()
                  (2): modReLU()
                )
              )
              (1): ConvBlock(
                (conv_block): Sequential(
                  (0): BaseConv2d(
                    (conv): Conv2d(96, 96, kernel_size=(3, 3), stride=(1, 1), padding=(1, 1), padding_mode=circular)
                  )
                  (1): BatchNorm2d()
                  (2): modReLU()
                )
              )
            )
            (residual_connection): BaseConv2d(
              (conv): Conv2d(48, 96, kernel_size=(1, 1), stride=(1, 1), padding_mode=circular)
            )
          )
        )
      )
      (2): Down(
        (down): PolyphaseInvariantDown2D(
          (component_selection): LPS(
            (get_logits): LPSLogitLayersV2(
              (conv): DoubleConv(
                (block): Sequential(
                  (0): ConvBlock(
                    (conv_block): Sequential(
                      (0): BaseConv2d(
                        (conv): Conv2d(192, 192, kernel_size=(3, 3), stride=(1, 1), padding=(1, 1), padding_mode=circular)
                      )
                      (1): BatchNorm2d()
                      (2): modReLU()
                    )
                  )
                  (1): ConvBlock(
                    (conv_block): Sequential(
                      (0): BaseConv2d(
                        (conv): Conv2d(192, 192, kernel_size=(3, 3), stride=(1, 1), padding=(1, 1), padding_mode=circular)
                      )
                      (1): BatchNorm2d()
                      (2): modReLU()
                    )
                  )
                )
                (residual_connection): Identity()
              )
              (projection): MLPCtoR(
                (mlp): Sequential(
                  (0): Linear(in_features=2, out_features=8, bias=True)
                  (1): ReLU()
                  (2): Linear(in_features=8, out_features=16, bias=True)
                  (3): ReLU()
                  (4): Linear(in_features=16, out_features=8, bias=True)
                  (5): ReLU()
                  (6): Linear(in_features=8, out_features=1, bias=True)
                )
              )
            )
            (gumbel_softmax): GumbelSoftmax()
            (softmax): Softmax()
          )
        )
        (convs): Sequential(
          (0): DoubleConv(
            (block): Sequential(
              (0): ConvBlock(
                (conv_block): Sequential(
                  (0): BaseConv2d(
                    (conv): Conv2d(96, 192, kernel_size=(3, 3), stride=(1, 1), padding=(1, 1), padding_mode=circular)
                  )
                  (1): BatchNorm2d()
                  (2): modReLU()
                )
              )
              (1): ConvBlock(
                (conv_block): Sequential(
                  (0): BaseConv2d(
                    (conv): Conv2d(192, 192, kernel_size=(3, 3), stride=(1, 1), padding=(1, 1), padding_mode=circular)
                  )
                  (1): BatchNorm2d()
                  (2): modReLU()
                )
              )
            )
            (residual_connection): BaseConv2d(
              (conv): Conv2d(96, 192, kernel_size=(1, 1), stride=(1, 1), padding_mode=circular)
            )
          )
        )
      )
    )
    (bridge): Sequential()
    (bottleneck): Sequential()
    (decoder): Sequential(
      (0): Up(
        (conv_adjust): DoubleConv(
          (block): Sequential(
            (0): ConvBlock(
              (conv_block): Sequential(
                (0): BaseConv2d(
                  (conv): Conv2d(192, 96, kernel_size=(1, 1), stride=(1, 1), padding_mode=circular)
                )
                (1): BatchNorm2d()
                (2): modReLU()
              )
            )
            (1): ConvBlock(
              (conv_block): Sequential(
                (0): BaseConv2d(
                  (conv): Conv2d(96, 96, kernel_size=(1, 1), stride=(1, 1), padding_mode=circular)
                )
                (1): BatchNorm2d()
                (2): modReLU()
              )
            )
          )
          (residual_connection): BaseConv2d(
            (conv): Conv2d(192, 96, kernel_size=(1, 1), stride=(1, 1), padding_mode=circular)
          )
        )
        (up): PolyphaseInvariantUp2D(
          (softmax): Softmax()
          (component_selection): LPS_u(
            (softmax): Softmax()
            (gumbel_softmax): GumbelSoftmax()
          )
        )
        (convs): Sequential(
          (0): DoubleConv(
            (block): Sequential(
              (0): ConvBlock(
                (conv_block): Sequential(
                  (0): BaseConv2d(
                    (conv): Conv2d(96, 96, kernel_size=(3, 3), stride=(1, 1), padding=(1, 1), padding_mode=circular)
                  )
                  (1): BatchNorm2d()
                  (2): modReLU()
                )
              )
              (1): ConvBlock(
                (conv_block): Sequential(
                  (0): BaseConv2d(
                    (conv): Conv2d(96, 96, kernel_size=(3, 3), stride=(1, 1), padding=(1, 1), padding_mode=circular)
                  )
                  (1): BatchNorm2d()
                  (2): modReLU()
                )
              )
            )
            (residual_connection): Identity()
          )
        )
      )
      (1): Up(
        (conv_adjust): DoubleConv(
          (block): Sequential(
            (0): ConvBlock(
              (conv_block): Sequential(
                (0): BaseConv2d(
                  (conv): Conv2d(96, 48, kernel_size=(1, 1), stride=(1, 1), padding_mode=circular)
                )
                (1): BatchNorm2d()
                (2): modReLU()
              )
            )
            (1): ConvBlock(
              (conv_block): Sequential(
                (0): BaseConv2d(
                  (conv): Conv2d(48, 48, kernel_size=(1, 1), stride=(1, 1), padding_mode=circular)
                )
                (1): BatchNorm2d()
                (2): modReLU()
              )
            )
          )
          (residual_connection): BaseConv2d(
            (conv): Conv2d(96, 48, kernel_size=(1, 1), stride=(1, 1), padding_mode=circular)
          )
        )
        (up): PolyphaseInvariantUp2D(
          (softmax): Softmax()
          (component_selection): LPS_u(
            (softmax): Softmax()
            (gumbel_softmax): GumbelSoftmax()
          )
        )
        (convs): Sequential(
          (0): DoubleConv(
            (block): Sequential(
              (0): ConvBlock(
                (conv_block): Sequential(
                  (0): BaseConv2d(
                    (conv): Conv2d(48, 48, kernel_size=(3, 3), stride=(1, 1), padding=(1, 1), padding_mode=circular)
                  )
                  (1): BatchNorm2d()
                  (2): modReLU()
                )
              )
              (1): ConvBlock(
                (conv_block): Sequential(
                  (0): BaseConv2d(
                    (conv): Conv2d(48, 48, kernel_size=(3, 3), stride=(1, 1), padding=(1, 1), padding_mode=circular)
                  )
                  (1): BatchNorm2d()
                  (2): modReLU()
                )
              )
            )
            (residual_connection): Identity()
          )
        )
      )
      (2): SingleConv(
        (conv): ConvBlock(
          (conv_block): Sequential(
            (0): BaseConv2d(
              (conv): Conv2d(48, 4, kernel_size=(1, 1), stride=(1, 1), padding_mode=circular)
            )
            (1): Identity()
            (2): Identity()
          )
        )
        (projection): Identity()
      )
    )
  )
)

## Datasets:
Train: <torch.utils.data.dataset.Subset object at 0x7c364fd87a70>
Validation: <torch.utils.data.dataset.Subset object at 0x7c364fd84fe0>
Test: <torch.utils.data.dataset.Subset object at 0x7c364fd85610>
…
